LatentDiffusion(
  (model): DiffusionWrapper(
    (diffusion_model): UNetModel(
      (time_embed): Sequential(
        (0): Linear(in_features=256, out_features=1024, bias=True)
        (1): SiLU()
        (2): Linear(in_features=1024, out_features=1024, bias=True)
      )
      (input_blocks): ModuleList(
        (0): TimestepEmbedSequential(
          (0): Conv2d(4, 256, kernel_size=(3, 3), stride=(1, 1), padding=(1, 1))
        )
        (1): TimestepEmbedSequential(
          (0): ResBlock(
            (in_layers): Sequential(
              (0): GroupNorm32(32, 256, eps=1e-05, affine=True)
              (1): SiLU()
              (2): Conv2d(256, 256, kernel_size=(3, 3), stride=(1, 1), padding=(1, 1))
            )
            (h_upd): Identity()
            (x_upd): Identity()
            (emb_layers): Sequential(
              (0): SiLU()
              (1): Linear(in_features=1024, out_features=256, bias=True)
            )
            (out_layers): Sequential(
              (0): GroupNorm32(32, 256, eps=1e-05, affine=True)
              (1): SiLU()
              (2): Dropout(p=0, inplace=False)
              (3): Conv2d(256, 256, kernel_size=(3, 3), stride=(1, 1), padding=(1, 1))
            )
            (skip_connection): Identity()
          )
          (1): SpatialTransformer(
            (norm): GroupNorm(32, 256, eps=1e-06, affine=True)
            (proj_in): Conv2d(256, 256, kernel_size=(1, 1), stride=(1, 1))
            (transformer_blocks): ModuleList(
              (0): BasicTransformerBlock(
                (attn1): CrossAttention(
                  (to_q): Linear(in_features=256, out_features=256, bias=False)
                  (to_k): Linear(in_features=256, out_features=256, bias=False)
                  (to_v): Linear(in_features=256, out_features=256, bias=False)
                  (to_out): Sequential(
                    (0): Linear(in_features=256, out_features=256, bias=True)
                    (1): Dropout(p=0.0, inplace=False)
                  )
                )
                (ff): FeedForward(
                  (net): Sequential(
                    (0): GEGLU(
                      (proj): Linear(in_features=256, out_features=2048, bias=True)
                    )
                    (1): Dropout(p=0.0, inplace=False)
                    (2): Linear(in_features=1024, out_features=256, bias=True)
                  )
                )
                (attn2): CrossAttention(
                  (to_q): Linear(in_features=256, out_features=256, bias=False)
                  (to_k): Linear(in_features=512, out_features=256, bias=False)
                  (to_v): Linear(in_features=512, out_features=256, bias=False)
                  (to_out): Sequential(
                    (0): Linear(in_features=256, out_features=256, bias=True)
                    (1): Dropout(p=0.0, inplace=False)
                  )
                )
                (norm1): LayerNorm((256,), eps=1e-05, elementwise_affine=True)
                (norm2): LayerNorm((256,), eps=1e-05, elementwise_affine=True)
                (norm3): LayerNorm((256,), eps=1e-05, elementwise_affine=True)
              )
            )
            (proj_out): Conv2d(256, 256, kernel_size=(1, 1), stride=(1, 1))
          )
        )
        (2): TimestepEmbedSequential(
          (0): ResBlock(
            (in_layers): Sequential(
              (0): GroupNorm32(32, 256, eps=1e-05, affine=True)
              (1): SiLU()
              (2): Conv2d(256, 256, kernel_size=(3, 3), stride=(1, 1), padding=(1, 1))
            )
            (h_upd): Identity()
            (x_upd): Identity()
            (emb_layers): Sequential(
              (0): SiLU()
              (1): Linear(in_features=1024, out_features=256, bias=True)
            )
            (out_layers): Sequential(
              (0): GroupNorm32(32, 256, eps=1e-05, affine=True)
              (1): SiLU()
              (2): Dropout(p=0, inplace=False)
              (3): Conv2d(256, 256, kernel_size=(3, 3), stride=(1, 1), padding=(1, 1))
            )
            (skip_connection): Identity()
          )
          (1): SpatialTransformer(
            (norm): GroupNorm(32, 256, eps=1e-06, affine=True)
            (proj_in): Conv2d(256, 256, kernel_size=(1, 1), stride=(1, 1))
            (transformer_blocks): ModuleList(
              (0): BasicTransformerBlock(
                (attn1): CrossAttention(
                  (to_q): Linear(in_features=256, out_features=256, bias=False)
                  (to_k): Linear(in_features=256, out_features=256, bias=False)
                  (to_v): Linear(in_features=256, out_features=256, bias=False)
                  (to_out): Sequential(
                    (0): Linear(in_features=256, out_features=256, bias=True)
                    (1): Dropout(p=0.0, inplace=False)
                  )
                )
                (ff): FeedForward(
                  (net): Sequential(
                    (0): GEGLU(
                      (proj): Linear(in_features=256, out_features=2048, bias=True)
                    )
                    (1): Dropout(p=0.0, inplace=False)
                    (2): Linear(in_features=1024, out_features=256, bias=True)
                  )
                )
                (attn2): CrossAttention(
                  (to_q): Linear(in_features=256, out_features=256, bias=False)
                  (to_k): Linear(in_features=512, out_features=256, bias=False)
                  (to_v): Linear(in_features=512, out_features=256, bias=False)
                  (to_out): Sequential(
                    (0): Linear(in_features=256, out_features=256, bias=True)
                    (1): Dropout(p=0.0, inplace=False)
                  )
                )
                (norm1): LayerNorm((256,), eps=1e-05, elementwise_affine=True)
                (norm2): LayerNorm((256,), eps=1e-05, elementwise_affine=True)
                (norm3): LayerNorm((256,), eps=1e-05, elementwise_affine=True)
              )
            )
            (proj_out): Conv2d(256, 256, kernel_size=(1, 1), stride=(1, 1))
          )
        )
        (3): TimestepEmbedSequential(
          (0): Downsample(
            (op): Conv2d(256, 256, kernel_size=(3, 3), stride=(2, 2), padding=(1, 1))
          )
        )
        (4): TimestepEmbedSequential(
          (0): ResBlock(
            (in_layers): Sequential(
              (0): GroupNorm32(32, 256, eps=1e-05, affine=True)
              (1): SiLU()
              (2): Conv2d(256, 512, kernel_size=(3, 3), stride=(1, 1), padding=(1, 1))
            )
            (h_upd): Identity()
            (x_upd): Identity()
            (emb_layers): Sequential(
              (0): SiLU()
              (1): Linear(in_features=1024, out_features=512, bias=True)
            )
            (out_layers): Sequential(
              (0): GroupNorm32(32, 512, eps=1e-05, affine=True)
              (1): SiLU()
              (2): Dropout(p=0, inplace=False)
              (3): Conv2d(512, 512, kernel_size=(3, 3), stride=(1, 1), padding=(1, 1))
            )
            (skip_connection): Conv2d(256, 512, kernel_size=(1, 1), stride=(1, 1))
          )
          (1): SpatialTransformer(
            (norm): GroupNorm(32, 512, eps=1e-06, affine=True)
            (proj_in): Conv2d(512, 512, kernel_size=(1, 1), stride=(1, 1))
            (transformer_blocks): ModuleList(
              (0): BasicTransformerBlock(
                (attn1): CrossAttention(
                  (to_q): Linear(in_features=512, out_features=512, bias=False)
                  (to_k): Linear(in_features=512, out_features=512, bias=False)
                  (to_v): Linear(in_features=512, out_features=512, bias=False)
                  (to_out): Sequential(
                    (0): Linear(in_features=512, out_features=512, bias=True)
                    (1): Dropout(p=0.0, inplace=False)
                  )
                )
                (ff): FeedForward(
                  (net): Sequential(
                    (0): GEGLU(
                      (proj): Linear(in_features=512, out_features=4096, bias=True)
                    )
                    (1): Dropout(p=0.0, inplace=False)
                    (2): Linear(in_features=2048, out_features=512, bias=True)
                  )
                )
                (attn2): CrossAttention(
                  (to_q): Linear(in_features=512, out_features=512, bias=False)
                  (to_k): Linear(in_features=512, out_features=512, bias=False)
                  (to_v): Linear(in_features=512, out_features=512, bias=False)
                  (to_out): Sequential(
                    (0): Linear(in_features=512, out_features=512, bias=True)
                    (1): Dropout(p=0.0, inplace=False)
                  )
                )
                (norm1): LayerNorm((512,), eps=1e-05, elementwise_affine=True)
                (norm2): LayerNorm((512,), eps=1e-05, elementwise_affine=True)
                (norm3): LayerNorm((512,), eps=1e-05, elementwise_affine=True)
              )
            )
            (proj_out): Conv2d(512, 512, kernel_size=(1, 1), stride=(1, 1))
          )
        )
        (5): TimestepEmbedSequential(
          (0): ResBlock(
            (in_layers): Sequential(
              (0): GroupNorm32(32, 512, eps=1e-05, affine=True)
              (1): SiLU()
              (2): Conv2d(512, 512, kernel_size=(3, 3), stride=(1, 1), padding=(1, 1))
            )
            (h_upd): Identity()
            (x_upd): Identity()
            (emb_layers): Sequential(
              (0): SiLU()
              (1): Linear(in_features=1024, out_features=512, bias=True)
            )
            (out_layers): Sequential(
              (0): GroupNorm32(32, 512, eps=1e-05, affine=True)
              (1): SiLU()
              (2): Dropout(p=0, inplace=False)
              (3): Conv2d(512, 512, kernel_size=(3, 3), stride=(1, 1), padding=(1, 1))
            )
            (skip_connection): Identity()
          )
          (1): SpatialTransformer(
            (norm): GroupNorm(32, 512, eps=1e-06, affine=True)
            (proj_in): Conv2d(512, 512, kernel_size=(1, 1), stride=(1, 1))
            (transformer_blocks): ModuleList(
              (0): BasicTransformerBlock(
                (attn1): CrossAttention(
                  (to_q): Linear(in_features=512, out_features=512, bias=False)
                  (to_k): Linear(in_features=512, out_features=512, bias=False)
                  (to_v): Linear(in_features=512, out_features=512, bias=False)
                  (to_out): Sequential(
                    (0): Linear(in_features=512, out_features=512, bias=True)
                    (1): Dropout(p=0.0, inplace=False)
                  )
                )
                (ff): FeedForward(
                  (net): Sequential(
                    (0): GEGLU(
                      (proj): Linear(in_features=512, out_features=4096, bias=True)
                    )
                    (1): Dropout(p=0.0, inplace=False)
                    (2): Linear(in_features=2048, out_features=512, bias=True)
                  )
                )
                (attn2): CrossAttention(
                  (to_q): Linear(in_features=512, out_features=512, bias=False)
                  (to_k): Linear(in_features=512, out_features=512, bias=False)
                  (to_v): Linear(in_features=512, out_features=512, bias=False)
                  (to_out): Sequential(
                    (0): Linear(in_features=512, out_features=512, bias=True)
                    (1): Dropout(p=0.0, inplace=False)
                  )
                )
                (norm1): LayerNorm((512,), eps=1e-05, elementwise_affine=True)
                (norm2): LayerNorm((512,), eps=1e-05, elementwise_affine=True)
                (norm3): LayerNorm((512,), eps=1e-05, elementwise_affine=True)
              )
            )
            (proj_out): Conv2d(512, 512, kernel_size=(1, 1), stride=(1, 1))
          )
        )
        (6): TimestepEmbedSequential(
          (0): Downsample(
            (op): Conv2d(512, 512, kernel_size=(3, 3), stride=(2, 2), padding=(1, 1))
          )
        )
        (7): TimestepEmbedSequential(
          (0): ResBlock(
            (in_layers): Sequential(
              (0): GroupNorm32(32, 512, eps=1e-05, affine=True)
              (1): SiLU()
              (2): Conv2d(512, 1024, kernel_size=(3, 3), stride=(1, 1), padding=(1, 1))
            )
            (h_upd): Identity()
            (x_upd): Identity()
            (emb_layers): Sequential(
              (0): SiLU()
              (1): Linear(in_features=1024, out_features=1024, bias=True)
            )
            (out_layers): Sequential(
              (0): GroupNorm32(32, 1024, eps=1e-05, affine=True)
              (1): SiLU()
              (2): Dropout(p=0, inplace=False)
              (3): Conv2d(1024, 1024, kernel_size=(3, 3), stride=(1, 1), padding=(1, 1))
            )
            (skip_connection): Conv2d(512, 1024, kernel_size=(1, 1), stride=(1, 1))
          )
          (1): SpatialTransformer(
            (norm): GroupNorm(32, 1024, eps=1e-06, affine=True)
            (proj_in): Conv2d(1024, 1024, kernel_size=(1, 1), stride=(1, 1))
            (transformer_blocks): ModuleList(
              (0): BasicTransformerBlock(
                (attn1): CrossAttention(
                  (to_q): Linear(in_features=1024, out_features=1024, bias=False)
                  (to_k): Linear(in_features=1024, out_features=1024, bias=False)
                  (to_v): Linear(in_features=1024, out_features=1024, bias=False)
                  (to_out): Sequential(
                    (0): Linear(in_features=1024, out_features=1024, bias=True)
                    (1): Dropout(p=0.0, inplace=False)
                  )
                )
                (ff): FeedForward(
                  (net): Sequential(
                    (0): GEGLU(
                      (proj): Linear(in_features=1024, out_features=8192, bias=True)
                    )
                    (1): Dropout(p=0.0, inplace=False)
                    (2): Linear(in_features=4096, out_features=1024, bias=True)
                  )
                )
                (attn2): CrossAttention(
                  (to_q): Linear(in_features=1024, out_features=1024, bias=False)
                  (to_k): Linear(in_features=512, out_features=1024, bias=False)
                  (to_v): Linear(in_features=512, out_features=1024, bias=False)
                  (to_out): Sequential(
                    (0): Linear(in_features=1024, out_features=1024, bias=True)
                    (1): Dropout(p=0.0, inplace=False)
                  )
                )
                (norm1): LayerNorm((1024,), eps=1e-05, elementwise_affine=True)
                (norm2): LayerNorm((1024,), eps=1e-05, elementwise_affine=True)
                (norm3): LayerNorm((1024,), eps=1e-05, elementwise_affine=True)
              )
            )
            (proj_out): Conv2d(1024, 1024, kernel_size=(1, 1), stride=(1, 1))
          )
        )
        (8): TimestepEmbedSequential(
          (0): ResBlock(
            (in_layers): Sequential(
              (0): GroupNorm32(32, 1024, eps=1e-05, affine=True)
              (1): SiLU()
              (2): Conv2d(1024, 1024, kernel_size=(3, 3), stride=(1, 1), padding=(1, 1))
            )
            (h_upd): Identity()
            (x_upd): Identity()
            (emb_layers): Sequential(
              (0): SiLU()
              (1): Linear(in_features=1024, out_features=1024, bias=True)
            )
            (out_layers): Sequential(
              (0): GroupNorm32(32, 1024, eps=1e-05, affine=True)
              (1): SiLU()
              (2): Dropout(p=0, inplace=False)
              (3): Conv2d(1024, 1024, kernel_size=(3, 3), stride=(1, 1), padding=(1, 1))
            )
            (skip_connection): Identity()
          )
          (1): SpatialTransformer(
            (norm): GroupNorm(32, 1024, eps=1e-06, affine=True)
            (proj_in): Conv2d(1024, 1024, kernel_size=(1, 1), stride=(1, 1))
            (transformer_blocks): ModuleList(
              (0): BasicTransformerBlock(
                (attn1): CrossAttention(
                  (to_q): Linear(in_features=1024, out_features=1024, bias=False)
                  (to_k): Linear(in_features=1024, out_features=1024, bias=False)
                  (to_v): Linear(in_features=1024, out_features=1024, bias=False)
                  (to_out): Sequential(
                    (0): Linear(in_features=1024, out_features=1024, bias=True)
                    (1): Dropout(p=0.0, inplace=False)
                  )
                )
                (ff): FeedForward(
                  (net): Sequential(
                    (0): GEGLU(
                      (proj): Linear(in_features=1024, out_features=8192, bias=True)
                    )
                    (1): Dropout(p=0.0, inplace=False)
                    (2): Linear(in_features=4096, out_features=1024, bias=True)
                  )
                )
                (attn2): CrossAttention(
                  (to_q): Linear(in_features=1024, out_features=1024, bias=False)
                  (to_k): Linear(in_features=512, out_features=1024, bias=False)
                  (to_v): Linear(in_features=512, out_features=1024, bias=False)
                  (to_out): Sequential(
                    (0): Linear(in_features=1024, out_features=1024, bias=True)
                    (1): Dropout(p=0.0, inplace=False)
                  )
                )
                (norm1): LayerNorm((1024,), eps=1e-05, elementwise_affine=True)
                (norm2): LayerNorm((1024,), eps=1e-05, elementwise_affine=True)
                (norm3): LayerNorm((1024,), eps=1e-05, elementwise_affine=True)
              )
            )
            (proj_out): Conv2d(1024, 1024, kernel_size=(1, 1), stride=(1, 1))
          )
        )
      )
      (middle_block): TimestepEmbedSequential(
        (0): ResBlock(
          (in_layers): Sequential(
            (0): GroupNorm32(32, 1024, eps=1e-05, affine=True)
            (1): SiLU()
            (2): Conv2d(1024, 1024, kernel_size=(3, 3), stride=(1, 1), padding=(1, 1))
          )
          (h_upd): Identity()
          (x_upd): Identity()
          (emb_layers): Sequential(
            (0): SiLU()
            (1): Linear(in_features=1024, out_features=1024, bias=True)
          )
          (out_layers): Sequential(
            (0): GroupNorm32(32, 1024, eps=1e-05, affine=True)
            (1): SiLU()
            (2): Dropout(p=0, inplace=False)
            (3): Conv2d(1024, 1024, kernel_size=(3, 3), stride=(1, 1), padding=(1, 1))
          )
          (skip_connection): Identity()
        )
        (1): SpatialTransformer(
          (norm): GroupNorm(32, 1024, eps=1e-06, affine=True)
          (proj_in): Conv2d(1024, 1024, kernel_size=(1, 1), stride=(1, 1))
          (transformer_blocks): ModuleList(
            (0): BasicTransformerBlock(
              (attn1): CrossAttention(
                (to_q): Linear(in_features=1024, out_features=1024, bias=False)
                (to_k): Linear(in_features=1024, out_features=1024, bias=False)
                (to_v): Linear(in_features=1024, out_features=1024, bias=False)
                (to_out): Sequential(
                  (0): Linear(in_features=1024, out_features=1024, bias=True)
                  (1): Dropout(p=0.0, inplace=False)
                )
              )
              (ff): FeedForward(
                (net): Sequential(
                  (0): GEGLU(
                    (proj): Linear(in_features=1024, out_features=8192, bias=True)
                  )
                  (1): Dropout(p=0.0, inplace=False)
                  (2): Linear(in_features=4096, out_features=1024, bias=True)
                )
              )
              (attn2): CrossAttention(
                (to_q): Linear(in_features=1024, out_features=1024, bias=False)
                (to_k): Linear(in_features=512, out_features=1024, bias=False)
                (to_v): Linear(in_features=512, out_features=1024, bias=False)
                (to_out): Sequential(
                  (0): Linear(in_features=1024, out_features=1024, bias=True)
                  (1): Dropout(p=0.0, inplace=False)
                )
              )
              (norm1): LayerNorm((1024,), eps=1e-05, elementwise_affine=True)
              (norm2): LayerNorm((1024,), eps=1e-05, elementwise_affine=True)
              (norm3): LayerNorm((1024,), eps=1e-05, elementwise_affine=True)
            )
          )
          (proj_out): Conv2d(1024, 1024, kernel_size=(1, 1), stride=(1, 1))
        )
        (2): ResBlock(
          (in_layers): Sequential(
            (0): GroupNorm32(32, 1024, eps=1e-05, affine=True)
            (1): SiLU()
            (2): Conv2d(1024, 1024, kernel_size=(3, 3), stride=(1, 1), padding=(1, 1))
          )
          (h_upd): Identity()
          (x_upd): Identity()
          (emb_layers): Sequential(
            (0): SiLU()
            (1): Linear(in_features=1024, out_features=1024, bias=True)
          )
          (out_layers): Sequential(
            (0): GroupNorm32(32, 1024, eps=1e-05, affine=True)
            (1): SiLU()
            (2): Dropout(p=0, inplace=False)
            (3): Conv2d(1024, 1024, kernel_size=(3, 3), stride=(1, 1), padding=(1, 1))
          )
          (skip_connection): Identity()
        )
      )
      (output_blocks): ModuleList(
        (0): TimestepEmbedSequential(
          (0): ResBlock(
            (in_layers): Sequential(
              (0): GroupNorm32(32, 2048, eps=1e-05, affine=True)
              (1): SiLU()
              (2): Conv2d(2048, 1024, kernel_size=(3, 3), stride=(1, 1), padding=(1, 1))
            )
            (h_upd): Identity()
            (x_upd): Identity()
            (emb_layers): Sequential(
              (0): SiLU()
              (1): Linear(in_features=1024, out_features=1024, bias=True)
            )
            (out_layers): Sequential(
              (0): GroupNorm32(32, 1024, eps=1e-05, affine=True)
              (1): SiLU()
              (2): Dropout(p=0, inplace=False)
              (3): Conv2d(1024, 1024, kernel_size=(3, 3), stride=(1, 1), padding=(1, 1))
            )
            (skip_connection): Conv2d(2048, 1024, kernel_size=(1, 1), stride=(1, 1))
          )
          (1): SpatialTransformer(
            (norm): GroupNorm(32, 1024, eps=1e-06, affine=True)
            (proj_in): Conv2d(1024, 1024, kernel_size=(1, 1), stride=(1, 1))
            (transformer_blocks): ModuleList(
              (0): BasicTransformerBlock(
                (attn1): CrossAttention(
                  (to_q): Linear(in_features=1024, out_features=1024, bias=False)
                  (to_k): Linear(in_features=1024, out_features=1024, bias=False)
                  (to_v): Linear(in_features=1024, out_features=1024, bias=False)
                  (to_out): Sequential(
                    (0): Linear(in_features=1024, out_features=1024, bias=True)
                    (1): Dropout(p=0.0, inplace=False)
                  )
                )
                (ff): FeedForward(
                  (net): Sequential(
                    (0): GEGLU(
                      (proj): Linear(in_features=1024, out_features=8192, bias=True)
                    )
                    (1): Dropout(p=0.0, inplace=False)
                    (2): Linear(in_features=4096, out_features=1024, bias=True)
                  )
                )
                (attn2): CrossAttention(
                  (to_q): Linear(in_features=1024, out_features=1024, bias=False)
                  (to_k): Linear(in_features=512, out_features=1024, bias=False)
                  (to_v): Linear(in_features=512, out_features=1024, bias=False)
                  (to_out): Sequential(
                    (0): Linear(in_features=1024, out_features=1024, bias=True)
                    (1): Dropout(p=0.0, inplace=False)
                  )
                )
                (norm1): LayerNorm((1024,), eps=1e-05, elementwise_affine=True)
                (norm2): LayerNorm((1024,), eps=1e-05, elementwise_affine=True)
                (norm3): LayerNorm((1024,), eps=1e-05, elementwise_affine=True)
              )
            )
            (proj_out): Conv2d(1024, 1024, kernel_size=(1, 1), stride=(1, 1))
          )
        )
        (1): TimestepEmbedSequential(
          (0): ResBlock(
            (in_layers): Sequential(
              (0): GroupNorm32(32, 2048, eps=1e-05, affine=True)
              (1): SiLU()
              (2): Conv2d(2048, 1024, kernel_size=(3, 3), stride=(1, 1), padding=(1, 1))
            )
            (h_upd): Identity()
            (x_upd): Identity()
            (emb_layers): Sequential(
              (0): SiLU()
              (1): Linear(in_features=1024, out_features=1024, bias=True)
            )
            (out_layers): Sequential(
              (0): GroupNorm32(32, 1024, eps=1e-05, affine=True)
              (1): SiLU()
              (2): Dropout(p=0, inplace=False)
              (3): Conv2d(1024, 1024, kernel_size=(3, 3), stride=(1, 1), padding=(1, 1))
            )
            (skip_connection): Conv2d(2048, 1024, kernel_size=(1, 1), stride=(1, 1))
          )
          (1): SpatialTransformer(
            (norm): GroupNorm(32, 1024, eps=1e-06, affine=True)
            (proj_in): Conv2d(1024, 1024, kernel_size=(1, 1), stride=(1, 1))
            (transformer_blocks): ModuleList(
              (0): BasicTransformerBlock(
                (attn1): CrossAttention(
                  (to_q): Linear(in_features=1024, out_features=1024, bias=False)
                  (to_k): Linear(in_features=1024, out_features=1024, bias=False)
                  (to_v): Linear(in_features=1024, out_features=1024, bias=False)
                  (to_out): Sequential(
                    (0): Linear(in_features=1024, out_features=1024, bias=True)
                    (1): Dropout(p=0.0, inplace=False)
                  )
                )
                (ff): FeedForward(
                  (net): Sequential(
                    (0): GEGLU(
                      (proj): Linear(in_features=1024, out_features=8192, bias=True)
                    )
                    (1): Dropout(p=0.0, inplace=False)
                    (2): Linear(in_features=4096, out_features=1024, bias=True)
                  )
                )
                (attn2): CrossAttention(
                  (to_q): Linear(in_features=1024, out_features=1024, bias=False)
                  (to_k): Linear(in_features=512, out_features=1024, bias=False)
                  (to_v): Linear(in_features=512, out_features=1024, bias=False)
                  (to_out): Sequential(
                    (0): Linear(in_features=1024, out_features=1024, bias=True)
                    (1): Dropout(p=0.0, inplace=False)
                  )
                )
                (norm1): LayerNorm((1024,), eps=1e-05, elementwise_affine=True)
                (norm2): LayerNorm((1024,), eps=1e-05, elementwise_affine=True)
                (norm3): LayerNorm((1024,), eps=1e-05, elementwise_affine=True)
              )
            )
            (proj_out): Conv2d(1024, 1024, kernel_size=(1, 1), stride=(1, 1))
          )
        )
        (2): TimestepEmbedSequential(
          (0): ResBlock(
            (in_layers): Sequential(
              (0): GroupNorm32(32, 1536, eps=1e-05, affine=True)
              (1): SiLU()
              (2): Conv2d(1536, 1024, kernel_size=(3, 3), stride=(1, 1), padding=(1, 1))
            )
            (h_upd): Identity()
            (x_upd): Identity()
            (emb_layers): Sequential(
              (0): SiLU()
              (1): Linear(in_features=1024, out_features=1024, bias=True)
            )
            (out_layers): Sequential(
              (0): GroupNorm32(32, 1024, eps=1e-05, affine=True)
              (1): SiLU()
              (2): Dropout(p=0, inplace=False)
              (3): Conv2d(1024, 1024, kernel_size=(3, 3), stride=(1, 1), padding=(1, 1))
            )
            (skip_connection): Conv2d(1536, 1024, kernel_size=(1, 1), stride=(1, 1))
          )
          (1): SpatialTransformer(
            (norm): GroupNorm(32, 1024, eps=1e-06, affine=True)
            (proj_in): Conv2d(1024, 1024, kernel_size=(1, 1), stride=(1, 1))
            (transformer_blocks): ModuleList(
              (0): BasicTransformerBlock(
                (attn1): CrossAttention(
                  (to_q): Linear(in_features=1024, out_features=1024, bias=False)
                  (to_k): Linear(in_features=1024, out_features=1024, bias=False)
                  (to_v): Linear(in_features=1024, out_features=1024, bias=False)
                  (to_out): Sequential(
                    (0): Linear(in_features=1024, out_features=1024, bias=True)
                    (1): Dropout(p=0.0, inplace=False)
                  )
                )
                (ff): FeedForward(
                  (net): Sequential(
                    (0): GEGLU(
                      (proj): Linear(in_features=1024, out_features=8192, bias=True)
                    )
                    (1): Dropout(p=0.0, inplace=False)
                    (2): Linear(in_features=4096, out_features=1024, bias=True)
                  )
                )
                (attn2): CrossAttention(
                  (to_q): Linear(in_features=1024, out_features=1024, bias=False)
                  (to_k): Linear(in_features=512, out_features=1024, bias=False)
                  (to_v): Linear(in_features=512, out_features=1024, bias=False)
                  (to_out): Sequential(
                    (0): Linear(in_features=1024, out_features=1024, bias=True)
                    (1): Dropout(p=0.0, inplace=False)
                  )
                )
                (norm1): LayerNorm((1024,), eps=1e-05, elementwise_affine=True)
                (norm2): LayerNorm((1024,), eps=1e-05, elementwise_affine=True)
                (norm3): LayerNorm((1024,), eps=1e-05, elementwise_affine=True)
              )
            )
            (proj_out): Conv2d(1024, 1024, kernel_size=(1, 1), stride=(1, 1))
          )
          (2): Upsample(
            (conv): Conv2d(1024, 1024, kernel_size=(3, 3), stride=(1, 1), padding=(1, 1))
          )
        )
        (3): TimestepEmbedSequential(
          (0): ResBlock(
            (in_layers): Sequential(
              (0): GroupNorm32(32, 1536, eps=1e-05, affine=True)
              (1): SiLU()
              (2): Conv2d(1536, 512, kernel_size=(3, 3), stride=(1, 1), padding=(1, 1))
            )
            (h_upd): Identity()
            (x_upd): Identity()
            (emb_layers): Sequential(
              (0): SiLU()
              (1): Linear(in_features=1024, out_features=512, bias=True)
            )
            (out_layers): Sequential(
              (0): GroupNorm32(32, 512, eps=1e-05, affine=True)
              (1): SiLU()
              (2): Dropout(p=0, inplace=False)
              (3): Conv2d(512, 512, kernel_size=(3, 3), stride=(1, 1), padding=(1, 1))
            )
            (skip_connection): Conv2d(1536, 512, kernel_size=(1, 1), stride=(1, 1))
          )
          (1): SpatialTransformer(
            (norm): GroupNorm(32, 512, eps=1e-06, affine=True)
            (proj_in): Conv2d(512, 512, kernel_size=(1, 1), stride=(1, 1))
            (transformer_blocks): ModuleList(
              (0): BasicTransformerBlock(
                (attn1): CrossAttention(
                  (to_q): Linear(in_features=512, out_features=512, bias=False)
                  (to_k): Linear(in_features=512, out_features=512, bias=False)
                  (to_v): Linear(in_features=512, out_features=512, bias=False)
                  (to_out): Sequential(
                    (0): Linear(in_features=512, out_features=512, bias=True)
                    (1): Dropout(p=0.0, inplace=False)
                  )
                )
                (ff): FeedForward(
                  (net): Sequential(
                    (0): GEGLU(
                      (proj): Linear(in_features=512, out_features=4096, bias=True)
                    )
                    (1): Dropout(p=0.0, inplace=False)
                    (2): Linear(in_features=2048, out_features=512, bias=True)
                  )
                )
                (attn2): CrossAttention(
                  (to_q): Linear(in_features=512, out_features=512, bias=False)
                  (to_k): Linear(in_features=512, out_features=512, bias=False)
                  (to_v): Linear(in_features=512, out_features=512, bias=False)
                  (to_out): Sequential(
                    (0): Linear(in_features=512, out_features=512, bias=True)
                    (1): Dropout(p=0.0, inplace=False)
                  )
                )
                (norm1): LayerNorm((512,), eps=1e-05, elementwise_affine=True)
                (norm2): LayerNorm((512,), eps=1e-05, elementwise_affine=True)
                (norm3): LayerNorm((512,), eps=1e-05, elementwise_affine=True)
              )
            )
            (proj_out): Conv2d(512, 512, kernel_size=(1, 1), stride=(1, 1))
          )
        )
        (4): TimestepEmbedSequential(
          (0): ResBlock(
            (in_layers): Sequential(
              (0): GroupNorm32(32, 1024, eps=1e-05, affine=True)
              (1): SiLU()
              (2): Conv2d(1024, 512, kernel_size=(3, 3), stride=(1, 1), padding=(1, 1))
            )
            (h_upd): Identity()
            (x_upd): Identity()
            (emb_layers): Sequential(
              (0): SiLU()
              (1): Linear(in_features=1024, out_features=512, bias=True)
            )
            (out_layers): Sequential(
              (0): GroupNorm32(32, 512, eps=1e-05, affine=True)
              (1): SiLU()
              (2): Dropout(p=0, inplace=False)
              (3): Conv2d(512, 512, kernel_size=(3, 3), stride=(1, 1), padding=(1, 1))
            )
            (skip_connection): Conv2d(1024, 512, kernel_size=(1, 1), stride=(1, 1))
          )
          (1): SpatialTransformer(
            (norm): GroupNorm(32, 512, eps=1e-06, affine=True)
            (proj_in): Conv2d(512, 512, kernel_size=(1, 1), stride=(1, 1))
            (transformer_blocks): ModuleList(
              (0): BasicTransformerBlock(
                (attn1): CrossAttention(
                  (to_q): Linear(in_features=512, out_features=512, bias=False)
                  (to_k): Linear(in_features=512, out_features=512, bias=False)
                  (to_v): Linear(in_features=512, out_features=512, bias=False)
                  (to_out): Sequential(
                    (0): Linear(in_features=512, out_features=512, bias=True)
                    (1): Dropout(p=0.0, inplace=False)
                  )
                )
                (ff): FeedForward(
                  (net): Sequential(
                    (0): GEGLU(
                      (proj): Linear(in_features=512, out_features=4096, bias=True)
                    )
                    (1): Dropout(p=0.0, inplace=False)
                    (2): Linear(in_features=2048, out_features=512, bias=True)
                  )
                )
                (attn2): CrossAttention(
                  (to_q): Linear(in_features=512, out_features=512, bias=False)
                  (to_k): Linear(in_features=512, out_features=512, bias=False)
                  (to_v): Linear(in_features=512, out_features=512, bias=False)
                  (to_out): Sequential(
                    (0): Linear(in_features=512, out_features=512, bias=True)
                    (1): Dropout(p=0.0, inplace=False)
                  )
                )
                (norm1): LayerNorm((512,), eps=1e-05, elementwise_affine=True)
                (norm2): LayerNorm((512,), eps=1e-05, elementwise_affine=True)
                (norm3): LayerNorm((512,), eps=1e-05, elementwise_affine=True)
              )
            )
            (proj_out): Conv2d(512, 512, kernel_size=(1, 1), stride=(1, 1))
          )
        )
        (5): TimestepEmbedSequential(
          (0): ResBlock(
            (in_layers): Sequential(
              (0): GroupNorm32(32, 768, eps=1e-05, affine=True)
              (1): SiLU()
              (2): Conv2d(768, 512, kernel_size=(3, 3), stride=(1, 1), padding=(1, 1))
            )
            (h_upd): Identity()
            (x_upd): Identity()
            (emb_layers): Sequential(
              (0): SiLU()
              (1): Linear(in_features=1024, out_features=512, bias=True)
            )
            (out_layers): Sequential(
              (0): GroupNorm32(32, 512, eps=1e-05, affine=True)
              (1): SiLU()
              (2): Dropout(p=0, inplace=False)
              (3): Conv2d(512, 512, kernel_size=(3, 3), stride=(1, 1), padding=(1, 1))
            )
            (skip_connection): Conv2d(768, 512, kernel_size=(1, 1), stride=(1, 1))
          )
          (1): SpatialTransformer(
            (norm): GroupNorm(32, 512, eps=1e-06, affine=True)
            (proj_in): Conv2d(512, 512, kernel_size=(1, 1), stride=(1, 1))
            (transformer_blocks): ModuleList(
              (0): BasicTransformerBlock(
                (attn1): CrossAttention(
                  (to_q): Linear(in_features=512, out_features=512, bias=False)
                  (to_k): Linear(in_features=512, out_features=512, bias=False)
                  (to_v): Linear(in_features=512, out_features=512, bias=False)
                  (to_out): Sequential(
                    (0): Linear(in_features=512, out_features=512, bias=True)
                    (1): Dropout(p=0.0, inplace=False)
                  )
                )
                (ff): FeedForward(
                  (net): Sequential(
                    (0): GEGLU(
                      (proj): Linear(in_features=512, out_features=4096, bias=True)
                    )
                    (1): Dropout(p=0.0, inplace=False)
                    (2): Linear(in_features=2048, out_features=512, bias=True)
                  )
                )
                (attn2): CrossAttention(
                  (to_q): Linear(in_features=512, out_features=512, bias=False)
                  (to_k): Linear(in_features=512, out_features=512, bias=False)
                  (to_v): Linear(in_features=512, out_features=512, bias=False)
                  (to_out): Sequential(
                    (0): Linear(in_features=512, out_features=512, bias=True)
                    (1): Dropout(p=0.0, inplace=False)
                  )
                )
                (norm1): LayerNorm((512,), eps=1e-05, elementwise_affine=True)
                (norm2): LayerNorm((512,), eps=1e-05, elementwise_affine=True)
                (norm3): LayerNorm((512,), eps=1e-05, elementwise_affine=True)
              )
            )
            (proj_out): Conv2d(512, 512, kernel_size=(1, 1), stride=(1, 1))
          )
          (2): Upsample(
            (conv): Conv2d(512, 512, kernel_size=(3, 3), stride=(1, 1), padding=(1, 1))
          )
        )
        (6): TimestepEmbedSequential(
          (0): ResBlock(
            (in_layers): Sequential(
              (0): GroupNorm32(32, 768, eps=1e-05, affine=True)
              (1): SiLU()
              (2): Conv2d(768, 256, kernel_size=(3, 3), stride=(1, 1), padding=(1, 1))
            )
            (h_upd): Identity()
            (x_upd): Identity()
            (emb_layers): Sequential(
              (0): SiLU()
              (1): Linear(in_features=1024, out_features=256, bias=True)
            )
            (out_layers): Sequential(
              (0): GroupNorm32(32, 256, eps=1e-05, affine=True)
              (1): SiLU()
              (2): Dropout(p=0, inplace=False)
              (3): Conv2d(256, 256, kernel_size=(3, 3), stride=(1, 1), padding=(1, 1))
            )
            (skip_connection): Conv2d(768, 256, kernel_size=(1, 1), stride=(1, 1))
          )
          (1): SpatialTransformer(
            (norm): GroupNorm(32, 256, eps=1e-06, affine=True)
            (proj_in): Conv2d(256, 256, kernel_size=(1, 1), stride=(1, 1))
            (transformer_blocks): ModuleList(
              (0): BasicTransformerBlock(
                (attn1): CrossAttention(
                  (to_q): Linear(in_features=256, out_features=256, bias=False)
                  (to_k): Linear(in_features=256, out_features=256, bias=False)
                  (to_v): Linear(in_features=256, out_features=256, bias=False)
                  (to_out): Sequential(
                    (0): Linear(in_features=256, out_features=256, bias=True)
                    (1): Dropout(p=0.0, inplace=False)
                  )
                )
                (ff): FeedForward(
                  (net): Sequential(
                    (0): GEGLU(
                      (proj): Linear(in_features=256, out_features=2048, bias=True)
                    )
                    (1): Dropout(p=0.0, inplace=False)
                    (2): Linear(in_features=1024, out_features=256, bias=True)
                  )
                )
                (attn2): CrossAttention(
                  (to_q): Linear(in_features=256, out_features=256, bias=False)
                  (to_k): Linear(in_features=512, out_features=256, bias=False)
                  (to_v): Linear(in_features=512, out_features=256, bias=False)
                  (to_out): Sequential(
                    (0): Linear(in_features=256, out_features=256, bias=True)
                    (1): Dropout(p=0.0, inplace=False)
                  )
                )
                (norm1): LayerNorm((256,), eps=1e-05, elementwise_affine=True)
                (norm2): LayerNorm((256,), eps=1e-05, elementwise_affine=True)
                (norm3): LayerNorm((256,), eps=1e-05, elementwise_affine=True)
              )
            )
            (proj_out): Conv2d(256, 256, kernel_size=(1, 1), stride=(1, 1))
          )
        )
        (7): TimestepEmbedSequential(
          (0): ResBlock(
            (in_layers): Sequential(
              (0): GroupNorm32(32, 512, eps=1e-05, affine=True)
              (1): SiLU()
              (2): Conv2d(512, 256, kernel_size=(3, 3), stride=(1, 1), padding=(1, 1))
            )
            (h_upd): Identity()
            (x_upd): Identity()
            (emb_layers): Sequential(
              (0): SiLU()
              (1): Linear(in_features=1024, out_features=256, bias=True)
            )
            (out_layers): Sequential(
              (0): GroupNorm32(32, 256, eps=1e-05, affine=True)
              (1): SiLU()
              (2): Dropout(p=0, inplace=False)
              (3): Conv2d(256, 256, kernel_size=(3, 3), stride=(1, 1), padding=(1, 1))
            )
            (skip_connection): Conv2d(512, 256, kernel_size=(1, 1), stride=(1, 1))
          )
          (1): SpatialTransformer(
            (norm): GroupNorm(32, 256, eps=1e-06, affine=True)
            (proj_in): Conv2d(256, 256, kernel_size=(1, 1), stride=(1, 1))
            (transformer_blocks): ModuleList(
              (0): BasicTransformerBlock(
                (attn1): CrossAttention(
                  (to_q): Linear(in_features=256, out_features=256, bias=False)
                  (to_k): Linear(in_features=256, out_features=256, bias=False)
                  (to_v): Linear(in_features=256, out_features=256, bias=False)
                  (to_out): Sequential(
                    (0): Linear(in_features=256, out_features=256, bias=True)
                    (1): Dropout(p=0.0, inplace=False)
                  )
                )
                (ff): FeedForward(
                  (net): Sequential(
                    (0): GEGLU(
                      (proj): Linear(in_features=256, out_features=2048, bias=True)
                    )
                    (1): Dropout(p=0.0, inplace=False)
                    (2): Linear(in_features=1024, out_features=256, bias=True)
                  )
                )
                (attn2): CrossAttention(
                  (to_q): Linear(in_features=256, out_features=256, bias=False)
                  (to_k): Linear(in_features=512, out_features=256, bias=False)
                  (to_v): Linear(in_features=512, out_features=256, bias=False)
                  (to_out): Sequential(
                    (0): Linear(in_features=256, out_features=256, bias=True)
                    (1): Dropout(p=0.0, inplace=False)
                  )
                )
                (norm1): LayerNorm((256,), eps=1e-05, elementwise_affine=True)
                (norm2): LayerNorm((256,), eps=1e-05, elementwise_affine=True)
                (norm3): LayerNorm((256,), eps=1e-05, elementwise_affine=True)
              )
            )
            (proj_out): Conv2d(256, 256, kernel_size=(1, 1), stride=(1, 1))
          )
        )
        (8): TimestepEmbedSequential(
          (0): ResBlock(
            (in_layers): Sequential(
              (0): GroupNorm32(32, 512, eps=1e-05, affine=True)
              (1): SiLU()
              (2): Conv2d(512, 256, kernel_size=(3, 3), stride=(1, 1), padding=(1, 1))
            )
            (h_upd): Identity()
            (x_upd): Identity()
            (emb_layers): Sequential(
              (0): SiLU()
              (1): Linear(in_features=1024, out_features=256, bias=True)
            )
            (out_layers): Sequential(
              (0): GroupNorm32(32, 256, eps=1e-05, affine=True)
              (1): SiLU()
              (2): Dropout(p=0, inplace=False)
              (3): Conv2d(256, 256, kernel_size=(3, 3), stride=(1, 1), padding=(1, 1))
            )
            (skip_connection): Conv2d(512, 256, kernel_size=(1, 1), stride=(1, 1))
          )
          (1): SpatialTransformer(
            (norm): GroupNorm(32, 256, eps=1e-06, affine=True)
            (proj_in): Conv2d(256, 256, kernel_size=(1, 1), stride=(1, 1))
            (transformer_blocks): ModuleList(
              (0): BasicTransformerBlock(
                (attn1): CrossAttention(
                  (to_q): Linear(in_features=256, out_features=256, bias=False)
                  (to_k): Linear(in_features=256, out_features=256, bias=False)
                  (to_v): Linear(in_features=256, out_features=256, bias=False)
                  (to_out): Sequential(
                    (0): Linear(in_features=256, out_features=256, bias=True)
                    (1): Dropout(p=0.0, inplace=False)
                  )
                )
                (ff): FeedForward(
                  (net): Sequential(
                    (0): GEGLU(
                      (proj): Linear(in_features=256, out_features=2048, bias=True)
                    )
                    (1): Dropout(p=0.0, inplace=False)
                    (2): Linear(in_features=1024, out_features=256, bias=True)
                  )
                )
                (attn2): CrossAttention(
                  (to_q): Linear(in_features=256, out_features=256, bias=False)
                  (to_k): Linear(in_features=512, out_features=256, bias=False)
                  (to_v): Linear(in_features=512, out_features=256, bias=False)
                  (to_out): Sequential(
                    (0): Linear(in_features=256, out_features=256, bias=True)
                    (1): Dropout(p=0.0, inplace=False)
                  )
                )
                (norm1): LayerNorm((256,), eps=1e-05, elementwise_affine=True)
                (norm2): LayerNorm((256,), eps=1e-05, elementwise_affine=True)
                (norm3): LayerNorm((256,), eps=1e-05, elementwise_affine=True)
              )
            )
            (proj_out): Conv2d(256, 256, kernel_size=(1, 1), stride=(1, 1))
          )
        )
      )
      (out): Sequential(
        (0): GroupNorm32(32, 256, eps=1e-05, affine=True)
        (1): SiLU()
        (2): Conv2d(256, 4, kernel_size=(3, 3), stride=(1, 1), padding=(1, 1))
      )
    )
  )
  (model_ema): LitEma()
  (first_stage_model): VQModelInterface(
    (encoder): Encoder(
      (conv_in): Conv2d(3, 128, kernel_size=(3, 3), stride=(1, 1), padding=(1, 1))
      (down): ModuleList(
        (0): Module(
          (block): ModuleList(
            (0): ResnetBlock(
              (norm1): GroupNorm(32, 128, eps=1e-06, affine=True)
              (conv1): Conv2d(128, 128, kernel_size=(3, 3), stride=(1, 1), padding=(1, 1))
              (norm2): GroupNorm(32, 128, eps=1e-06, affine=True)
              (dropout): Dropout(p=0.0, inplace=False)
              (conv2): Conv2d(128, 128, kernel_size=(3, 3), stride=(1, 1), padding=(1, 1))
            )
            (1): ResnetBlock(
              (norm1): GroupNorm(32, 128, eps=1e-06, affine=True)
              (conv1): Conv2d(128, 128, kernel_size=(3, 3), stride=(1, 1), padding=(1, 1))
              (norm2): GroupNorm(32, 128, eps=1e-06, affine=True)
              (dropout): Dropout(p=0.0, inplace=False)
              (conv2): Conv2d(128, 128, kernel_size=(3, 3), stride=(1, 1), padding=(1, 1))
            )
          )
          (attn): ModuleList()
          (downsample): Downsample(
            (conv): Conv2d(128, 128, kernel_size=(3, 3), stride=(2, 2))
          )
        )
        (1): Module(
          (block): ModuleList(
            (0): ResnetBlock(
              (norm1): GroupNorm(32, 128, eps=1e-06, affine=True)
              (conv1): Conv2d(128, 256, kernel_size=(3, 3), stride=(1, 1), padding=(1, 1))
              (norm2): GroupNorm(32, 256, eps=1e-06, affine=True)
              (dropout): Dropout(p=0.0, inplace=False)
              (conv2): Conv2d(256, 256, kernel_size=(3, 3), stride=(1, 1), padding=(1, 1))
              (nin_shortcut): Conv2d(128, 256, kernel_size=(1, 1), stride=(1, 1))
            )
            (1): ResnetBlock(
              (norm1): GroupNorm(32, 256, eps=1e-06, affine=True)
              (conv1): Conv2d(256, 256, kernel_size=(3, 3), stride=(1, 1), padding=(1, 1))
              (norm2): GroupNorm(32, 256, eps=1e-06, affine=True)
              (dropout): Dropout(p=0.0, inplace=False)
              (conv2): Conv2d(256, 256, kernel_size=(3, 3), stride=(1, 1), padding=(1, 1))
            )
          )
          (attn): ModuleList()
          (downsample): Downsample(
            (conv): Conv2d(256, 256, kernel_size=(3, 3), stride=(2, 2))
          )
        )
        (2): Module(
          (block): ModuleList(
            (0): ResnetBlock(
              (norm1): GroupNorm(32, 256, eps=1e-06, affine=True)
              (conv1): Conv2d(256, 256, kernel_size=(3, 3), stride=(1, 1), padding=(1, 1))
              (norm2): GroupNorm(32, 256, eps=1e-06, affine=True)
              (dropout): Dropout(p=0.0, inplace=False)
              (conv2): Conv2d(256, 256, kernel_size=(3, 3), stride=(1, 1), padding=(1, 1))
            )
            (1): ResnetBlock(
              (norm1): GroupNorm(32, 256, eps=1e-06, affine=True)
              (conv1): Conv2d(256, 256, kernel_size=(3, 3), stride=(1, 1), padding=(1, 1))
              (norm2): GroupNorm(32, 256, eps=1e-06, affine=True)
              (dropout): Dropout(p=0.0, inplace=False)
              (conv2): Conv2d(256, 256, kernel_size=(3, 3), stride=(1, 1), padding=(1, 1))
            )
          )
          (attn): ModuleList()
          (downsample): Downsample(
            (conv): Conv2d(256, 256, kernel_size=(3, 3), stride=(2, 2))
          )
        )
        (3): Module(
          (block): ModuleList(
            (0): ResnetBlock(
              (norm1): GroupNorm(32, 256, eps=1e-06, affine=True)
              (conv1): Conv2d(256, 512, kernel_size=(3, 3), stride=(1, 1), padding=(1, 1))
              (norm2): GroupNorm(32, 512, eps=1e-06, affine=True)
              (dropout): Dropout(p=0.0, inplace=False)
              (conv2): Conv2d(512, 512, kernel_size=(3, 3), stride=(1, 1), padding=(1, 1))
              (nin_shortcut): Conv2d(256, 512, kernel_size=(1, 1), stride=(1, 1))
            )
            (1): ResnetBlock(
              (norm1): GroupNorm(32, 512, eps=1e-06, affine=True)
              (conv1): Conv2d(512, 512, kernel_size=(3, 3), stride=(1, 1), padding=(1, 1))
              (norm2): GroupNorm(32, 512, eps=1e-06, affine=True)
              (dropout): Dropout(p=0.0, inplace=False)
              (conv2): Conv2d(512, 512, kernel_size=(3, 3), stride=(1, 1), padding=(1, 1))
            )
          )
          (attn): ModuleList(
            (0): AttnBlock(
              (norm): GroupNorm(32, 512, eps=1e-06, affine=True)
              (q): Conv2d(512, 512, kernel_size=(1, 1), stride=(1, 1))
              (k): Conv2d(512, 512, kernel_size=(1, 1), stride=(1, 1))
              (v): Conv2d(512, 512, kernel_size=(1, 1), stride=(1, 1))
              (proj_out): Conv2d(512, 512, kernel_size=(1, 1), stride=(1, 1))
            )
            (1): AttnBlock(
              (norm): GroupNorm(32, 512, eps=1e-06, affine=True)
              (q): Conv2d(512, 512, kernel_size=(1, 1), stride=(1, 1))
              (k): Conv2d(512, 512, kernel_size=(1, 1), stride=(1, 1))
              (v): Conv2d(512, 512, kernel_size=(1, 1), stride=(1, 1))
              (proj_out): Conv2d(512, 512, kernel_size=(1, 1), stride=(1, 1))
            )
          )
        )
      )
      (mid): Module(
        (block_1): ResnetBlock(
          (norm1): GroupNorm(32, 512, eps=1e-06, affine=True)
          (conv1): Conv2d(512, 512, kernel_size=(3, 3), stride=(1, 1), padding=(1, 1))
          (norm2): GroupNorm(32, 512, eps=1e-06, affine=True)
          (dropout): Dropout(p=0.0, inplace=False)
          (conv2): Conv2d(512, 512, kernel_size=(3, 3), stride=(1, 1), padding=(1, 1))
        )
        (attn_1): AttnBlock(
          (norm): GroupNorm(32, 512, eps=1e-06, affine=True)
          (q): Conv2d(512, 512, kernel_size=(1, 1), stride=(1, 1))
          (k): Conv2d(512, 512, kernel_size=(1, 1), stride=(1, 1))
          (v): Conv2d(512, 512, kernel_size=(1, 1), stride=(1, 1))
          (proj_out): Conv2d(512, 512, kernel_size=(1, 1), stride=(1, 1))
        )
        (block_2): ResnetBlock(
          (norm1): GroupNorm(32, 512, eps=1e-06, affine=True)
          (conv1): Conv2d(512, 512, kernel_size=(3, 3), stride=(1, 1), padding=(1, 1))
          (norm2): GroupNorm(32, 512, eps=1e-06, affine=True)
          (dropout): Dropout(p=0.0, inplace=False)
          (conv2): Conv2d(512, 512, kernel_size=(3, 3), stride=(1, 1), padding=(1, 1))
        )
      )
      (norm_out): GroupNorm(32, 512, eps=1e-06, affine=True)
      (conv_out): Conv2d(512, 4, kernel_size=(3, 3), stride=(1, 1), padding=(1, 1))
    )
    (decoder): Decoder(
      (conv_in): Conv2d(4, 512, kernel_size=(3, 3), stride=(1, 1), padding=(1, 1))
      (mid): Module(
        (block_1): ResnetBlock(
          (norm1): GroupNorm(32, 512, eps=1e-06, affine=True)
          (conv1): Conv2d(512, 512, kernel_size=(3, 3), stride=(1, 1), padding=(1, 1))
          (norm2): GroupNorm(32, 512, eps=1e-06, affine=True)
          (dropout): Dropout(p=0.0, inplace=False)
          (conv2): Conv2d(512, 512, kernel_size=(3, 3), stride=(1, 1), padding=(1, 1))
        )
        (attn_1): AttnBlock(
          (norm): GroupNorm(32, 512, eps=1e-06, affine=True)
          (q): Conv2d(512, 512, kernel_size=(1, 1), stride=(1, 1))
          (k): Conv2d(512, 512, kernel_size=(1, 1), stride=(1, 1))
          (v): Conv2d(512, 512, kernel_size=(1, 1), stride=(1, 1))
          (proj_out): Conv2d(512, 512, kernel_size=(1, 1), stride=(1, 1))
        )
        (block_2): ResnetBlock(
          (norm1): GroupNorm(32, 512, eps=1e-06, affine=True)
          (conv1): Conv2d(512, 512, kernel_size=(3, 3), stride=(1, 1), padding=(1, 1))
          (norm2): GroupNorm(32, 512, eps=1e-06, affine=True)
          (dropout): Dropout(p=0.0, inplace=False)
          (conv2): Conv2d(512, 512, kernel_size=(3, 3), stride=(1, 1), padding=(1, 1))
        )
      )
      (up): ModuleList(
        (0): Module(
          (block): ModuleList(
            (0): ResnetBlock(
              (norm1): GroupNorm(32, 256, eps=1e-06, affine=True)
              (conv1): Conv2d(256, 128, kernel_size=(3, 3), stride=(1, 1), padding=(1, 1))
              (norm2): GroupNorm(32, 128, eps=1e-06, affine=True)
              (dropout): Dropout(p=0.0, inplace=False)
              (conv2): Conv2d(128, 128, kernel_size=(3, 3), stride=(1, 1), padding=(1, 1))
              (nin_shortcut): Conv2d(256, 128, kernel_size=(1, 1), stride=(1, 1))
            )
            (1): ResnetBlock(
              (norm1): GroupNorm(32, 128, eps=1e-06, affine=True)
              (conv1): Conv2d(128, 128, kernel_size=(3, 3), stride=(1, 1), padding=(1, 1))
              (norm2): GroupNorm(32, 128, eps=1e-06, affine=True)
              (dropout): Dropout(p=0.0, inplace=False)
              (conv2): Conv2d(128, 128, kernel_size=(3, 3), stride=(1, 1), padding=(1, 1))
            )
            (2): ResnetBlock(
              (norm1): GroupNorm(32, 128, eps=1e-06, affine=True)
              (conv1): Conv2d(128, 128, kernel_size=(3, 3), stride=(1, 1), padding=(1, 1))
              (norm2): GroupNorm(32, 128, eps=1e-06, affine=True)
              (dropout): Dropout(p=0.0, inplace=False)
              (conv2): Conv2d(128, 128, kernel_size=(3, 3), stride=(1, 1), padding=(1, 1))
            )
          )
          (attn): ModuleList()
        )
        (1): Module(
          (block): ModuleList(
            (0): ResnetBlock(
              (norm1): GroupNorm(32, 256, eps=1e-06, affine=True)
              (conv1): Conv2d(256, 256, kernel_size=(3, 3), stride=(1, 1), padding=(1, 1))
              (norm2): GroupNorm(32, 256, eps=1e-06, affine=True)
              (dropout): Dropout(p=0.0, inplace=False)
              (conv2): Conv2d(256, 256, kernel_size=(3, 3), stride=(1, 1), padding=(1, 1))
            )
            (1): ResnetBlock(
              (norm1): GroupNorm(32, 256, eps=1e-06, affine=True)
              (conv1): Conv2d(256, 256, kernel_size=(3, 3), stride=(1, 1), padding=(1, 1))
              (norm2): GroupNorm(32, 256, eps=1e-06, affine=True)
              (dropout): Dropout(p=0.0, inplace=False)
              (conv2): Conv2d(256, 256, kernel_size=(3, 3), stride=(1, 1), padding=(1, 1))
            )
            (2): ResnetBlock(
              (norm1): GroupNorm(32, 256, eps=1e-06, affine=True)
              (conv1): Conv2d(256, 256, kernel_size=(3, 3), stride=(1, 1), padding=(1, 1))
              (norm2): GroupNorm(32, 256, eps=1e-06, affine=True)
              (dropout): Dropout(p=0.0, inplace=False)
              (conv2): Conv2d(256, 256, kernel_size=(3, 3), stride=(1, 1), padding=(1, 1))
            )
          )
          (attn): ModuleList()
          (upsample): Upsample(
            (conv): Conv2d(256, 256, kernel_size=(3, 3), stride=(1, 1), padding=(1, 1))
          )
        )
        (2): Module(
          (block): ModuleList(
            (0): ResnetBlock(
              (norm1): GroupNorm(32, 512, eps=1e-06, affine=True)
              (conv1): Conv2d(512, 256, kernel_size=(3, 3), stride=(1, 1), padding=(1, 1))
              (norm2): GroupNorm(32, 256, eps=1e-06, affine=True)
              (dropout): Dropout(p=0.0, inplace=False)
              (conv2): Conv2d(256, 256, kernel_size=(3, 3), stride=(1, 1), padding=(1, 1))
              (nin_shortcut): Conv2d(512, 256, kernel_size=(1, 1), stride=(1, 1))
            )
            (1): ResnetBlock(
              (norm1): GroupNorm(32, 256, eps=1e-06, affine=True)
              (conv1): Conv2d(256, 256, kernel_size=(3, 3), stride=(1, 1), padding=(1, 1))
              (norm2): GroupNorm(32, 256, eps=1e-06, affine=True)
              (dropout): Dropout(p=0.0, inplace=False)
              (conv2): Conv2d(256, 256, kernel_size=(3, 3), stride=(1, 1), padding=(1, 1))
            )
            (2): ResnetBlock(
              (norm1): GroupNorm(32, 256, eps=1e-06, affine=True)
              (conv1): Conv2d(256, 256, kernel_size=(3, 3), stride=(1, 1), padding=(1, 1))
              (norm2): GroupNorm(32, 256, eps=1e-06, affine=True)
              (dropout): Dropout(p=0.0, inplace=False)
              (conv2): Conv2d(256, 256, kernel_size=(3, 3), stride=(1, 1), padding=(1, 1))
            )
          )
          (attn): ModuleList()
          (upsample): Upsample(
            (conv): Conv2d(256, 256, kernel_size=(3, 3), stride=(1, 1), padding=(1, 1))
          )
        )
        (3): Module(
          (block): ModuleList(
            (0): ResnetBlock(
              (norm1): GroupNorm(32, 512, eps=1e-06, affine=True)
              (conv1): Conv2d(512, 512, kernel_size=(3, 3), stride=(1, 1), padding=(1, 1))
              (norm2): GroupNorm(32, 512, eps=1e-06, affine=True)
              (dropout): Dropout(p=0.0, inplace=False)
              (conv2): Conv2d(512, 512, kernel_size=(3, 3), stride=(1, 1), padding=(1, 1))
            )
            (1): ResnetBlock(
              (norm1): GroupNorm(32, 512, eps=1e-06, affine=True)
              (conv1): Conv2d(512, 512, kernel_size=(3, 3), stride=(1, 1), padding=(1, 1))
              (norm2): GroupNorm(32, 512, eps=1e-06, affine=True)
              (dropout): Dropout(p=0.0, inplace=False)
              (conv2): Conv2d(512, 512, kernel_size=(3, 3), stride=(1, 1), padding=(1, 1))
            )
            (2): ResnetBlock(
              (norm1): GroupNorm(32, 512, eps=1e-06, affine=True)
              (conv1): Conv2d(512, 512, kernel_size=(3, 3), stride=(1, 1), padding=(1, 1))
              (norm2): GroupNorm(32, 512, eps=1e-06, affine=True)
              (dropout): Dropout(p=0.0, inplace=False)
              (conv2): Conv2d(512, 512, kernel_size=(3, 3), stride=(1, 1), padding=(1, 1))
            )
          )
          (attn): ModuleList(
            (0): AttnBlock(
              (norm): GroupNorm(32, 512, eps=1e-06, affine=True)
              (q): Conv2d(512, 512, kernel_size=(1, 1), stride=(1, 1))
              (k): Conv2d(512, 512, kernel_size=(1, 1), stride=(1, 1))
              (v): Conv2d(512, 512, kernel_size=(1, 1), stride=(1, 1))
              (proj_out): Conv2d(512, 512, kernel_size=(1, 1), stride=(1, 1))
            )
            (1): AttnBlock(
              (norm): GroupNorm(32, 512, eps=1e-06, affine=True)
              (q): Conv2d(512, 512, kernel_size=(1, 1), stride=(1, 1))
              (k): Conv2d(512, 512, kernel_size=(1, 1), stride=(1, 1))
              (v): Conv2d(512, 512, kernel_size=(1, 1), stride=(1, 1))
              (proj_out): Conv2d(512, 512, kernel_size=(1, 1), stride=(1, 1))
            )
            (2): AttnBlock(
              (norm): GroupNorm(32, 512, eps=1e-06, affine=True)
              (q): Conv2d(512, 512, kernel_size=(1, 1), stride=(1, 1))
              (k): Conv2d(512, 512, kernel_size=(1, 1), stride=(1, 1))
              (v): Conv2d(512, 512, kernel_size=(1, 1), stride=(1, 1))
              (proj_out): Conv2d(512, 512, kernel_size=(1, 1), stride=(1, 1))
            )
          )
          (upsample): Upsample(
            (conv): Conv2d(512, 512, kernel_size=(3, 3), stride=(1, 1), padding=(1, 1))
          )
        )
      )
      (norm_out): GroupNorm(32, 128, eps=1e-06, affine=True)
      (conv_out): Conv2d(128, 3, kernel_size=(3, 3), stride=(1, 1), padding=(1, 1))
    )
    (loss): Identity()
    (quantize): VectorQuantizer2(
      (embedding): Embedding(16384, 4)
    )
    (quant_conv): Conv2d(4, 4, kernel_size=(1, 1), stride=(1, 1))
    (post_quant_conv): Conv2d(4, 4, kernel_size=(1, 1), stride=(1, 1))
  )
  (cond_stage_model): ClassEmbedder(
    (embedding): Embedding(1000, 512)
  )
)